{"svm": {"_name": "Support Vector Machine", "lexical": {"all": {"_name": "All lexical features", "_desc": "All lexical techniques combined.", "accuracy": 80.0, "precision": 0.87, "recall": 0.707, "f1score": 0.78, "params": {"kernel": "rbf", "C": 10, "gamma": "auto", "degree": 10}}, "1": {"_name": "Length of URL", "_desc": "The number of characters that make up the URL.", "accuracy": 59.599999999999994, "precision": 0.592, "recall": 0.624, "f1score": 0.607, "params": {"kernel": "rbf", "C": 0.1, "gamma": "scale", "degree": 5}}, "2": {"_name": "Number of labels", "_desc": "The number of sections in a URL separated by full-stop.", "accuracy": 69.39999999999999, "precision": 0.738, "recall": 0.595, "f1score": 0.659, "params": {"kernel": "rbf", "C": 1, "gamma": "scale", "degree": 10}}, "3": {"_name": "Average length of labels", "_desc": "The average length of sections in a URL separated by full-stop.", "accuracy": 51.0, "precision": 0.503, "recall": 0.817, "f1score": 0.623, "params": {"kernel": "rbf", "C": 1, "gamma": "auto", "degree": 1}}, "4": {"_name": "Number of normal characters", "_desc": "The number of alphabetic characters in a URL.", "accuracy": 57.599999999999994, "precision": 0.567, "recall": 0.649, "f1score": 0.605, "params": {"kernel": "rbf", "C": 10, "gamma": "auto", "degree": 5}}, "5": {"_name": "Number of special characters", "_desc": "The number of symbol characters in a URL.", "accuracy": 65.60000000000001, "precision": 0.695, "recall": 0.59, "f1score": 0.638, "params": {"kernel": "rbf", "C": 10, "gamma": "scale", "degree": 3}}, "6": {"_name": "Number of numerical characters", "_desc": "The number of numerical characters in a URL.", "accuracy": 56.99999999999999, "precision": 0.688, "recall": 0.252, "f1score": 0.368, "params": {"kernel": "rbf", "C": 1, "gamma": "scale", "degree": 1}}, "7": {"_name": "Bag of words", "_desc": "Comparing the most frequently occuring words that appear in a URL.", "accuracy": 76.6, "precision": 0.844, "recall": 0.647, "f1score": 0.732, "params": {"kernel": "rbf", "C": 1, "gamma": "scale", "degree": 1}}}, "host": {"all": {"_name": "All host features", "_desc": "All host techniques combined.", "accuracy": 68.2, "precision": 0.675, "recall": 0.217, "f1score": 0.328, "params": {"kernel": "poly", "C": 10, "gamma": "scale", "degree": 2}}, "1": {"_name": "Server location", "_desc": "The country the web server is located in.", "accuracy": 66.4, "precision": 0.651, "recall": 0.117, "f1score": 0.198, "params": {"kernel": "rbf", "C": 10, "gamma": "auto", "degree": 2}}, "2": {"_name": "Number of servers", "_desc": "The number of servers reachable behind the URL.", "accuracy": 63.1, "precision": 0.0, "recall": 0.0, "f1score": 0.0, "params": {"kernel": "poly", "C": 0.01, "gamma": "auto", "degree": 3}}, "3": {"_name": "Registrars", "_desc": "The company that manages the URL's domain name.", "accuracy": 64.9, "precision": 0.712, "recall": 0.059, "f1score": 0.11, "params": {"kernel": "poly", "C": 1, "gamma": "auto", "degree": 1}}, "4": {"_name": "Creation date", "_desc": "The date the URL was created.", "accuracy": 77.0, "precision": 0.66, "recall": 0.731, "f1score": 0.694, "params": {"kernel": "rbf", "C": 1, "gamma": "scale", "degree": 1}}, "5": {"_name": "Modification date", "_desc": "The date the URL was last modified.", "accuracy": 63.9, "precision": 0.0, "recall": 0.0, "f1score": 0.0, "params": {"kernel": "rbf", "C": 0.001, "gamma": "auto", "degree": 1}}, "6": {"_name": "Expiration date", "_desc": "The date the URL was/will expired.", "accuracy": 66.10000000000001, "precision": 0.608, "recall": 0.299, "f1score": 0.401, "params": {"kernel": "linear", "C": 0.01, "gamma": "auto", "degree": 5}}, "7": {"_name": "Latency", "_desc": "The time taken for the server to respond.", "accuracy": 65.0, "precision": 0.0, "recall": 0.0, "f1score": 0.0, "params": {"kernel": "rbf", "C": 0.001, "gamma": "scale", "degree": 2}}}, "content": {"all": {"_name": "All content features", "_desc": "All content techniques combined.", "accuracy": 52.5, "precision": 0.509, "recall": 0.996, "f1score": 0.674, "params": {"kernel": "poly", "C": 0.001, "gamma": "auto", "degree": 10}}, "1": {"_name": "Is redirect", "_desc": "Whether the URL automatically redirects the visitor.", "accuracy": 50.1, "precision": 0.501, "recall": 1.0, "f1score": 0.667, "params": {"kernel": "poly", "C": 1, "gamma": "scale", "degree": 2}}, "2": {"_name": "Type of document", "_desc": "The type of content being hosted on the URL.", "accuracy": 49.1, "precision": 0.0, "recall": 0.0, "f1score": 0.0, "params": {"kernel": "poly", "C": 1, "gamma": "auto", "degree": 3}}, "3": {"_name": "Length of document", "_desc": "The length of the document in characters.", "accuracy": 55.7, "precision": 0.536, "recall": 0.997, "f1score": 0.697, "params": {"kernel": "poly", "C": 0.01, "gamma": "scale", "degree": 3}}, "4": {"_name": "HTML BOW", "_desc": "Bag of words for malicious HTML tags.", "accuracy": 58.3, "precision": 0.545, "recall": 0.992, "f1score": 0.703, "params": {"kernel": "poly", "C": 0.01, "gamma": "scale", "degree": 5}}, "5": {"_name": "HTML average word length", "_desc": "The average length of words in the .html file.", "accuracy": 51.6, "precision": 0.516, "recall": 1.0, "f1score": 0.681, "params": {"kernel": "linear", "C": 0.001, "gamma": "scale", "degree": 2}}, "6": {"_name": "JS BOW", "_desc": "Bag of words for malicious JS functions.", "accuracy": 51.9, "precision": 0.514, "recall": 0.998, "f1score": 0.679, "params": {"kernel": "poly", "C": 0.001, "gamma": "auto", "degree": 3}}, "7": {"_name": "JS average word length", "_desc": "The average length of words in the .js file.", "accuracy": 50.8, "precision": 0.506, "recall": 0.885, "f1score": 0.644, "params": {"kernel": "rbf", "C": 0.1, "gamma": "auto", "degree": 3}}}}, "rf": {"_name": "Random Forest", "lexical": {"all": {"_name": "All lexical features", "_desc": "All lexical techniques combined.", "accuracy": 80.30000000000001, "precision": 0.865, "recall": 0.718, "f1score": 0.785, "params": {"n_estimators": 1800, "max_depth": 70, "max_features": "sqrt", "min_samples_leaf": 1, "min_samples_split": 5}}, "1": {"_name": "Length of URL", "_desc": "The number of characters that make up the URL.", "accuracy": 60.8, "precision": 0.588, "recall": 0.627, "f1score": 0.607, "params": {"n_estimators": 1400, "max_depth": null, "max_features": "log2", "min_samples_leaf": 4, "min_samples_split": 10}}, "2": {"_name": "Number of labels", "_desc": "The number of sections in a URL separated by full-stop.", "accuracy": 68.8, "precision": 0.754, "recall": 0.58, "f1score": 0.656, "params": {"n_estimators": 1800, "max_depth": null, "max_features": null, "min_samples_leaf": 4, "min_samples_split": 2}}, "3": {"_name": "Average length of labels", "_desc": "The average length of sections in a URL separated by full-stop.", "accuracy": 47.8, "precision": 0.482, "recall": 0.721, "f1score": 0.578, "params": {"n_estimators": 600, "max_depth": 10, "max_features": "log2", "min_samples_leaf": 8, "min_samples_split": 5}}, "4": {"_name": "Number of normal characters", "_desc": "The number of alphabetic characters in a URL.", "accuracy": 56.8, "precision": 0.561, "recall": 0.596, "f1score": 0.578, "params": {"n_estimators": 1800, "max_depth": 5, "max_features": "log2", "min_samples_leaf": 4, "min_samples_split": 5}}, "5": {"_name": "Number of special characters", "_desc": "The number of symbol characters in a URL.", "accuracy": 64.60000000000001, "precision": 0.651, "recall": 0.667, "f1score": 0.659, "params": {"n_estimators": 1400, "max_depth": 5, "max_features": null, "min_samples_leaf": 4, "min_samples_split": 2}}, "6": {"_name": "Number of numerical characters", "_desc": "The number of numerical characters in a URL.", "accuracy": 58.3, "precision": 0.699, "recall": 0.271, "f1score": 0.39, "params": {"n_estimators": 600, "max_depth": 5, "max_features": "sqrt", "min_samples_leaf": 4, "min_samples_split": 10}}, "7": {"_name": "Bag of words", "_desc": "Comparing the most frequently occuring words that appear in a URL.", "accuracy": 75.4, "precision": 0.833, "recall": 0.621, "f1score": 0.711, "params": {"n_estimators": 1400, "max_depth": null, "max_features": "sqrt", "min_samples_leaf": 4, "min_samples_split": 5}}}, "host": {"all": {"_name": "All host features", "_desc": "All host techniques combined.", "accuracy": 66.8, "precision": 0.689, "recall": 0.205, "f1score": 0.316, "params": {"n_estimators": 200, "max_depth": 100, "max_features": null, "min_samples_leaf": 2, "min_samples_split": 5}}, "1": {"_name": "Server location", "_desc": "The country the web server is located in.", "accuracy": 66.0, "precision": 0.675, "recall": 0.133, "f1score": 0.222, "params": {"n_estimators": 200, "max_depth": 40, "max_features": null, "min_samples_leaf": 2, "min_samples_split": 2}}, "2": {"_name": "Number of servers", "_desc": "The number of servers reachable behind the URL.", "accuracy": 64.4, "precision": 0.536, "recall": 0.354, "f1score": 0.426, "params": {"n_estimators": 200, "max_depth": 40, "max_features": null, "min_samples_leaf": 1, "min_samples_split": 5}}, "3": {"_name": "Registrars", "_desc": "The company that manages the URL's domain name.", "accuracy": 64.4, "precision": 0.733, "recall": 0.069, "f1score": 0.126, "params": {"n_estimators": 1000, "max_depth": 100, "max_features": null, "min_samples_leaf": 2, "min_samples_split": 10}}, "4": {"_name": "Creation date", "_desc": "The date the URL was created.", "accuracy": 80.2, "precision": 0.705, "recall": 0.686, "f1score": 0.695, "params": {"n_estimators": 200, "max_depth": 100, "max_features": "log2", "min_samples_leaf": 4, "min_samples_split": 2}}, "5": {"_name": "Modification date", "_desc": "The date the URL was last modified.", "accuracy": 72.5, "precision": 0.735, "recall": 0.358, "f1score": 0.482, "params": {"n_estimators": 1400, "max_depth": 70, "max_features": "sqrt", "min_samples_leaf": 2, "min_samples_split": 10}}, "6": {"_name": "Expiration date", "_desc": "The date the URL was/will expired.", "accuracy": 74.0, "precision": 0.897, "recall": 0.312, "f1score": 0.463, "params": {"n_estimators": 600, "max_depth": null, "max_features": null, "min_samples_leaf": 1, "min_samples_split": 2}}, "7": {"_name": "Latency", "_desc": "The time taken for the server to respond.", "accuracy": 61.3, "precision": 0.36, "recall": 0.121, "f1score": 0.181, "params": {"n_estimators": 600, "max_depth": 100, "max_features": "log2", "min_samples_leaf": 1, "min_samples_split": 2}}}, "content": {"all": {"_name": "All content features", "_desc": "All content techniques combined.", "accuracy": 87.3, "precision": 0.861, "recall": 0.885, "f1score": 0.872, "params": {"n_estimators": 1400, "max_depth": 100, "max_features": "log2", "min_samples_leaf": 4, "min_samples_split": 2}}, "1": {"_name": "Is redirect", "_desc": "Whether the URL automatically redirects the visitor.", "accuracy": 49.6, "precision": 0.0, "recall": 0.0, "f1score": 0.0, "params": {"n_estimators": 200, "max_depth": null, "max_features": "sqrt", "min_samples_leaf": 2, "min_samples_split": 5}}, "2": {"_name": "Type of document", "_desc": "The type of content being hosted on the URL.", "accuracy": 48.4, "precision": 0.0, "recall": 0.0, "f1score": 0.0, "params": {"n_estimators": 200, "max_depth": 40, "max_features": "sqrt", "min_samples_leaf": 8, "min_samples_split": 10}}, "3": {"_name": "Length of document", "_desc": "The length of the document in characters.", "accuracy": 64.0, "precision": 0.811, "recall": 0.364, "f1score": 0.502, "params": {"n_estimators": 1000, "max_depth": null, "max_features": "sqrt", "min_samples_leaf": 4, "min_samples_split": 2}}, "4": {"_name": "HTML BOW", "_desc": "Bag of words for malicious HTML tags.", "accuracy": 91.10000000000001, "precision": 0.888, "recall": 0.939, "f1score": 0.912, "params": {"n_estimators": 1000, "max_depth": null, "max_features": "log2", "min_samples_leaf": 1, "min_samples_split": 2}}, "5": {"_name": "HTML average word length", "_desc": "The average length of words in the .html file.", "accuracy": 49.8, "precision": 0.515, "recall": 0.167, "f1score": 0.252, "params": {"n_estimators": 1000, "max_depth": 100, "max_features": "sqrt", "min_samples_leaf": 1, "min_samples_split": 2}}, "6": {"_name": "JS BOW", "_desc": "Bag of words for malicious JS functions.", "accuracy": 77.10000000000001, "precision": 0.873, "recall": 0.63, "f1score": 0.732, "params": {"n_estimators": 600, "max_depth": null, "max_features": "sqrt", "min_samples_leaf": 1, "min_samples_split": 2}}, "7": {"_name": "JS average word length", "_desc": "The average length of words in the .js file.", "accuracy": 53.800000000000004, "precision": 0.617, "recall": 0.212, "f1score": 0.315, "params": {"n_estimators": 1000, "max_depth": 40, "max_features": "sqrt", "min_samples_leaf": 1, "min_samples_split": 2}}}}, "pc": {"_name": "Perceptron", "lexical": {"all": {"_name": "All lexical features", "_desc": "All lexical techniques combined.", "accuracy": 69.39999999999999, "precision": 0.983, "recall": 0.407, "f1score": 0.576, "params": {"penalty": null, "alpha": 0.01, "max_iter": 5000, "early_stopping": true}}, "1": {"_name": "Length of URL", "_desc": "The number of characters that make up the URL.", "accuracy": 50.8, "precision": 0.688, "recall": 0.033, "f1score": 0.063, "params": {"penalty": "elasticnet", "alpha": 0.01, "max_iter": 10, "early_stopping": false}}, "2": {"_name": "Number of labels", "_desc": "The number of sections in a URL separated by full-stop.", "accuracy": 68.5, "precision": 0.723, "recall": 0.597, "f1score": 0.654, "params": {"penalty": null, "alpha": 0.001, "max_iter": 1000, "early_stopping": false}}, "3": {"_name": "Average length of labels", "_desc": "The average length of sections in a URL separated by full-stop.", "accuracy": 49.8, "precision": 0.502, "recall": 0.262, "f1score": 0.344, "params": {"penalty": null, "alpha": 0.1, "max_iter": 1000, "early_stopping": false}}, "4": {"_name": "Number of normal characters", "_desc": "The number of alphabetic characters in a URL.", "accuracy": 54.900000000000006, "precision": 0.527, "recall": 0.878, "f1score": 0.658, "params": {"penalty": "elasticnet", "alpha": 0.001, "max_iter": 5000, "early_stopping": true}}, "5": {"_name": "Number of special characters", "_desc": "The number of symbol characters in a URL.", "accuracy": 64.7, "precision": 0.633, "recall": 0.691, "f1score": 0.661, "params": {"penalty": "l2", "alpha": 0.001, "max_iter": 5000, "early_stopping": true}}, "6": {"_name": "Number of numerical characters", "_desc": "The number of numerical characters in a URL.", "accuracy": 51.1, "precision": 0.0, "recall": 0.0, "f1score": 0.0, "params": {"penalty": "elasticnet", "alpha": 0.01, "max_iter": 100, "early_stopping": false}}, "7": {"_name": "Bag of words", "_desc": "Comparing the most frequently occuring words that appear in a URL.", "accuracy": 67.2, "precision": 0.776, "recall": 0.483, "f1score": 0.595, "params": {"penalty": "l2", "alpha": 0.01, "max_iter": 5000, "early_stopping": false}}}, "host": {"all": {"_name": "All host features", "_desc": "All host techniques combined.", "accuracy": 68.2, "precision": 0.694, "recall": 0.196, "f1score": 0.306, "params": {"penalty": null, "alpha": 0.01, "max_iter": 10, "early_stopping": true}}, "1": {"_name": "Server location", "_desc": "The country the web server is located in.", "accuracy": 66.10000000000001, "precision": 0.655, "recall": 0.117, "f1score": 0.199, "params": {"penalty": "l1", "alpha": 0.001, "max_iter": 1000, "early_stopping": false}}, "2": {"_name": "Number of servers", "_desc": "The number of servers reachable behind the URL.", "accuracy": 63.1, "precision": 0.0, "recall": 0.0, "f1score": 0.0, "params": {"penalty": null, "alpha": 0.001, "max_iter": 10, "early_stopping": true}}, "3": {"_name": "Registrars", "_desc": "The company that manages the URL's domain name.", "accuracy": 57.8, "precision": 0.397, "recall": 0.318, "f1score": 0.353, "params": {"penalty": "l2", "alpha": 0.001, "max_iter": 10, "early_stopping": false}}, "4": {"_name": "Creation date", "_desc": "The date the URL was created.", "accuracy": 58.099999999999994, "precision": 0.278, "recall": 0.12, "f1score": 0.167, "params": {"penalty": null, "alpha": 0.001, "max_iter": 1000, "early_stopping": false}}, "5": {"_name": "Modification date", "_desc": "The date the URL was last modified.", "accuracy": 65.8, "precision": 0.0, "recall": 0.0, "f1score": 0.0, "params": {"penalty": null, "alpha": 0.01, "max_iter": 5000, "early_stopping": true}}, "6": {"_name": "Expiration date", "_desc": "The date the URL was/will expired.", "accuracy": 62.9, "precision": 0.0, "recall": 0.0, "f1score": 0.0, "params": {"penalty": "l1", "alpha": 0.001, "max_iter": 1000, "early_stopping": false}}, "7": {"_name": "Latency", "_desc": "The time taken for the server to respond.", "accuracy": 62.6, "precision": 0.0, "recall": 0.0, "f1score": 0.0, "params": {"penalty": null, "alpha": 0.001, "max_iter": 1000, "early_stopping": false}}}, "content": {"all": {"_name": "All content features", "_desc": "All content techniques combined.", "accuracy": 68.7, "precision": 0.618, "recall": 0.962, "f1score": 0.753, "params": {}}, "1": {"_name": "Is redirect", "_desc": "Whether the URL automatically redirects the visitor.", "accuracy": 48.6, "precision": 0.0, "recall": 0.0, "f1score": 0.0, "params": {"penalty": "elasticnet", "alpha": 0.1, "max_iter": 10, "early_stopping": false}}, "2": {"_name": "Type of document", "_desc": "The type of content being hosted on the URL.", "accuracy": 49.0, "precision": 0.0, "recall": 0.0, "f1score": 0.0, "params": {"penalty": null, "alpha": 0.001, "max_iter": 100, "early_stopping": true}}, "3": {"_name": "Length of document", "_desc": "The length of the document in characters.", "accuracy": 50.8, "precision": 0.667, "recall": 0.009, "f1score": 0.018, "params": {"penalty": "l2", "alpha": 0.1, "max_iter": 10, "early_stopping": true}}, "4": {"_name": "HTML BOW", "_desc": "Bag of words for malicious HTML tags.", "accuracy": 82.6, "precision": 0.824, "recall": 0.823, "f1score": 0.824, "params": {"penalty": "l2", "alpha": 0.01, "max_iter": 1000, "early_stopping": true}}, "5": {"_name": "HTML average word length", "_desc": "The average length of words in the .html file.", "accuracy": 62.3, "precision": 0.616, "recall": 0.661, "f1score": 0.638, "params": {"penalty": null, "alpha": 0.01, "max_iter": 100, "early_stopping": false}}, "6": {"_name": "JS BOW", "_desc": "Bag of words for malicious JS functions.", "accuracy": 53.6, "precision": 0.794, "recall": 0.088, "f1score": 0.158, "params": {"penalty": "elasticnet", "alpha": 0.001, "max_iter": 1000, "early_stopping": true}}, "7": {"_name": "JS average word length", "_desc": "The average length of words in the .js file.", "accuracy": 54.800000000000004, "precision": 0.618, "recall": 0.213, "f1score": 0.317, "params": {"penalty": null, "alpha": 0.1, "max_iter": 10, "early_stopping": false}}}}, "cnn": {"_name": "Convolutional Neural Network", "lexical": {"1": {"_name": "Character level features", "_desc": "CNN over the characters that make up a URL", "accuracy": 91.10000000000001, "precision": 0.97, "recall": 0.698, "f1score": 0.812, "params": {"first_activation": "sigmoid", "first_neuron": 256, "dropout": 0.2, "second_activation": "elu", "second_neuron": 128, "optimizer": "adam"}, "config": {"class_name": "Model", "config": {"name": "model_1", "layers": [{"name": "Input", "class_name": "InputLayer", "config": {"batch_input_shape": [null, 200], "dtype": "float32", "sparse": false, "name": "Input"}, "inbound_nodes": []}, {"name": "Char_Embedding", "class_name": "Embedding", "config": {"name": "Char_Embedding", "trainable": true, "batch_input_shape": [null, 200], "dtype": "float32", "input_dim": 70, "output_dim": 32, "embeddings_initializer": {"class_name": "RandomUniform", "config": {"minval": -0.05, "maxval": 0.05, "seed": null}}, "embeddings_regularizer": null, "activity_regularizer": null, "embeddings_constraint": null, "mask_zero": false, "input_length": 200}, "inbound_nodes": [[["Input", 0, 0, {}]]]}, {"name": "Conv_Filter_3", "class_name": "Conv1D", "config": {"name": "Conv_Filter_3", "trainable": true, "dtype": "float32", "filters": 256, "kernel_size": [3], "strides": [1], "padding": "valid", "data_format": "channels_last", "dilation_rate": [1], "activation": "linear", "use_bias": true, "kernel_initializer": {"class_name": "VarianceScaling", "config": {"scale": 1.0, "mode": "fan_avg", "distribution": "uniform", "seed": null}}, "bias_initializer": {"class_name": "Zeros", "config": {}}, "kernel_regularizer": null, "bias_regularizer": null, "activity_regularizer": null, "kernel_constraint": null, "bias_constraint": null}, "inbound_nodes": [[["Char_Embedding", 0, 0, {}]]]}, {"name": "Conv_Filter_4", "class_name": "Conv1D", "config": {"name": "Conv_Filter_4", "trainable": true, "dtype": "float32", "filters": 256, "kernel_size": [4], "strides": [1], "padding": "valid", "data_format": "channels_last", "dilation_rate": [1], "activation": "linear", "use_bias": true, "kernel_initializer": {"class_name": "VarianceScaling", "config": {"scale": 1.0, "mode": "fan_avg", "distribution": "uniform", "seed": null}}, "bias_initializer": {"class_name": "Zeros", "config": {}}, "kernel_regularizer": null, "bias_regularizer": null, "activity_regularizer": null, "kernel_constraint": null, "bias_constraint": null}, "inbound_nodes": [[["Char_Embedding", 0, 0, {}]]]}, {"name": "Conv_Filter_5", "class_name": "Conv1D", "config": {"name": "Conv_Filter_5", "trainable": true, "dtype": "float32", "filters": 256, "kernel_size": [5], "strides": [1], "padding": "valid", "data_format": "channels_last", "dilation_rate": [1], "activation": "linear", "use_bias": true, "kernel_initializer": {"class_name": "VarianceScaling", "config": {"scale": 1.0, "mode": "fan_avg", "distribution": "uniform", "seed": null}}, "bias_initializer": {"class_name": "Zeros", "config": {}}, "kernel_regularizer": null, "bias_regularizer": null, "activity_regularizer": null, "kernel_constraint": null, "bias_constraint": null}, "inbound_nodes": [[["Char_Embedding", 0, 0, {}]]]}, {"name": "Conv_Filter_6", "class_name": "Conv1D", "config": {"name": "Conv_Filter_6", "trainable": true, "dtype": "float32", "filters": 256, "kernel_size": [6], "strides": [1], "padding": "valid", "data_format": "channels_last", "dilation_rate": [1], "activation": "linear", "use_bias": true, "kernel_initializer": {"class_name": "VarianceScaling", "config": {"scale": 1.0, "mode": "fan_avg", "distribution": "uniform", "seed": null}}, "bias_initializer": {"class_name": "Zeros", "config": {}}, "kernel_regularizer": null, "bias_regularizer": null, "activity_regularizer": null, "kernel_constraint": null, "bias_constraint": null}, "inbound_nodes": [[["Char_Embedding", 0, 0, {}]]]}, {"name": "MaxPool_3", "class_name": "MaxPooling1D", "config": {"name": "MaxPool_3", "trainable": true, "dtype": "float32", "strides": [198], "pool_size": [198], "padding": "valid", "data_format": "channels_last"}, "inbound_nodes": [[["Conv_Filter_3", 0, 0, {}]]]}, {"name": "MaxPool_4", "class_name": "MaxPooling1D", "config": {"name": "MaxPool_4", "trainable": true, "dtype": "float32", "strides": [197], "pool_size": [197], "padding": "valid", "data_format": "channels_last"}, "inbound_nodes": [[["Conv_Filter_4", 0, 0, {}]]]}, {"name": "MaxPool_5", "class_name": "MaxPooling1D", "config": {"name": "MaxPool_5", "trainable": true, "dtype": "float32", "strides": [196], "pool_size": [196], "padding": "valid", "data_format": "channels_last"}, "inbound_nodes": [[["Conv_Filter_5", 0, 0, {}]]]}, {"name": "MaxPool_6", "class_name": "MaxPooling1D", "config": {"name": "MaxPool_6", "trainable": true, "dtype": "float32", "strides": [195], "pool_size": [195], "padding": "valid", "data_format": "channels_last"}, "inbound_nodes": [[["Conv_Filter_6", 0, 0, {}]]]}, {"name": "Flatten_3", "class_name": "Flatten", "config": {"name": "Flatten_3", "trainable": true, "dtype": "float32", "data_format": "channels_last"}, "inbound_nodes": [[["MaxPool_3", 0, 0, {}]]]}, {"name": "Flatten_4", "class_name": "Flatten", "config": {"name": "Flatten_4", "trainable": true, "dtype": "float32", "data_format": "channels_last"}, "inbound_nodes": [[["MaxPool_4", 0, 0, {}]]]}, {"name": "Flatten_5", "class_name": "Flatten", "config": {"name": "Flatten_5", "trainable": true, "dtype": "float32", "data_format": "channels_last"}, "inbound_nodes": [[["MaxPool_5", 0, 0, {}]]]}, {"name": "Flatten_6", "class_name": "Flatten", "config": {"name": "Flatten_6", "trainable": true, "dtype": "float32", "data_format": "channels_last"}, "inbound_nodes": [[["MaxPool_6", 0, 0, {}]]]}, {"name": "concatenate_1", "class_name": "Concatenate", "config": {"name": "concatenate_1", "trainable": true, "dtype": "float32", "axis": -1}, "inbound_nodes": [[["Flatten_3", 0, 0, {}], ["Flatten_4", 0, 0, {}], ["Flatten_5", 0, 0, {}], ["Flatten_6", 0, 0, {}]]]}, {"name": "Fully_Connected", "class_name": "Dense", "config": {"name": "Fully_Connected", "trainable": true, "dtype": "float32", "units": 256, "activation": "sigmoid", "use_bias": true, "kernel_initializer": {"class_name": "VarianceScaling", "config": {"scale": 1.0, "mode": "fan_avg", "distribution": "uniform", "seed": null}}, "bias_initializer": {"class_name": "Zeros", "config": {}}, "kernel_regularizer": null, "bias_regularizer": null, "activity_regularizer": null, "kernel_constraint": null, "bias_constraint": null}, "inbound_nodes": [[["concatenate_1", 0, 0, {}]]]}, {"name": "Dropout", "class_name": "Dropout", "config": {"name": "Dropout", "trainable": true, "dtype": "float32", "rate": 0.2, "noise_shape": null, "seed": null}, "inbound_nodes": [[["Fully_Connected", 0, 0, {}]]]}, {"name": "Fully_Connected_2", "class_name": "Dense", "config": {"name": "Fully_Connected_2", "trainable": true, "dtype": "float32", "units": 128, "activation": "elu", "use_bias": true, "kernel_initializer": {"class_name": "VarianceScaling", "config": {"scale": 1.0, "mode": "fan_avg", "distribution": "uniform", "seed": null}}, "bias_initializer": {"class_name": "Zeros", "config": {}}, "kernel_regularizer": null, "bias_regularizer": null, "activity_regularizer": null, "kernel_constraint": null, "bias_constraint": null}, "inbound_nodes": [[["Dropout", 0, 0, {}]]]}, {"name": "Softmax_Output", "class_name": "Dense", "config": {"name": "Softmax_Output", "trainable": true, "dtype": "float32", "units": 1, "activation": "sigmoid", "use_bias": true, "kernel_initializer": {"class_name": "VarianceScaling", "config": {"scale": 1.0, "mode": "fan_avg", "distribution": "uniform", "seed": null}}, "bias_initializer": {"class_name": "Zeros", "config": {}}, "kernel_regularizer": null, "bias_regularizer": null, "activity_regularizer": null, "kernel_constraint": null, "bias_constraint": null}, "inbound_nodes": [[["Fully_Connected_2", 0, 0, {}]]]}], "input_layers": [["Input", 0, 0]], "output_layers": [["Softmax_Output", 0, 0]]}, "keras_version": "2.3.0", "backend": "tensorflow"}}, "2": {"_name": "Word level features", "_desc": "CNN over the words that make up a URL", "accuracy": 89.4, "precision": 0.959, "recall": 0.641, "f1score": 0.768, "params": {"first_activation": "sigmoid", "first_neuron": 128, "dropout": 0.2, "second_activation": "sigmoid", "second_neuron": 256, "optimizer": "adam"}, "config": {"class_name": "Model", "config": {"name": "model_1", "layers": [{"name": "Input", "class_name": "InputLayer", "config": {"batch_input_shape": [null, 200], "dtype": "float32", "sparse": false, "name": "Input"}, "inbound_nodes": []}, {"name": "Word_Embedding", "class_name": "Embedding", "config": {"name": "Word_Embedding", "trainable": true, "batch_input_shape": [null, 200], "dtype": "float32", "input_dim": 20002, "output_dim": 32, "embeddings_initializer": {"class_name": "RandomUniform", "config": {"minval": -0.05, "maxval": 0.05, "seed": null}}, "embeddings_regularizer": null, "activity_regularizer": null, "embeddings_constraint": null, "mask_zero": false, "input_length": 200}, "inbound_nodes": [[["Input", 0, 0, {}]]]}, {"name": "Conv_Filter_3", "class_name": "Conv1D", "config": {"name": "Conv_Filter_3", "trainable": true, "dtype": "float32", "filters": 256, "kernel_size": [3], "strides": [1], "padding": "valid", "data_format": "channels_last", "dilation_rate": [1], "activation": "linear", "use_bias": true, "kernel_initializer": {"class_name": "VarianceScaling", "config": {"scale": 1.0, "mode": "fan_avg", "distribution": "uniform", "seed": null}}, "bias_initializer": {"class_name": "Zeros", "config": {}}, "kernel_regularizer": null, "bias_regularizer": null, "activity_regularizer": null, "kernel_constraint": null, "bias_constraint": null}, "inbound_nodes": [[["Word_Embedding", 0, 0, {}]]]}, {"name": "Conv_Filter_4", "class_name": "Conv1D", "config": {"name": "Conv_Filter_4", "trainable": true, "dtype": "float32", "filters": 256, "kernel_size": [4], "strides": [1], "padding": "valid", "data_format": "channels_last", "dilation_rate": [1], "activation": "linear", "use_bias": true, "kernel_initializer": {"class_name": "VarianceScaling", "config": {"scale": 1.0, "mode": "fan_avg", "distribution": "uniform", "seed": null}}, "bias_initializer": {"class_name": "Zeros", "config": {}}, "kernel_regularizer": null, "bias_regularizer": null, "activity_regularizer": null, "kernel_constraint": null, "bias_constraint": null}, "inbound_nodes": [[["Word_Embedding", 0, 0, {}]]]}, {"name": "Conv_Filter_5", "class_name": "Conv1D", "config": {"name": "Conv_Filter_5", "trainable": true, "dtype": "float32", "filters": 256, "kernel_size": [5], "strides": [1], "padding": "valid", "data_format": "channels_last", "dilation_rate": [1], "activation": "linear", "use_bias": true, "kernel_initializer": {"class_name": "VarianceScaling", "config": {"scale": 1.0, "mode": "fan_avg", "distribution": "uniform", "seed": null}}, "bias_initializer": {"class_name": "Zeros", "config": {}}, "kernel_regularizer": null, "bias_regularizer": null, "activity_regularizer": null, "kernel_constraint": null, "bias_constraint": null}, "inbound_nodes": [[["Word_Embedding", 0, 0, {}]]]}, {"name": "Conv_Filter_6", "class_name": "Conv1D", "config": {"name": "Conv_Filter_6", "trainable": true, "dtype": "float32", "filters": 256, "kernel_size": [6], "strides": [1], "padding": "valid", "data_format": "channels_last", "dilation_rate": [1], "activation": "linear", "use_bias": true, "kernel_initializer": {"class_name": "VarianceScaling", "config": {"scale": 1.0, "mode": "fan_avg", "distribution": "uniform", "seed": null}}, "bias_initializer": {"class_name": "Zeros", "config": {}}, "kernel_regularizer": null, "bias_regularizer": null, "activity_regularizer": null, "kernel_constraint": null, "bias_constraint": null}, "inbound_nodes": [[["Word_Embedding", 0, 0, {}]]]}, {"name": "MaxPool_3", "class_name": "MaxPooling1D", "config": {"name": "MaxPool_3", "trainable": true, "dtype": "float32", "strides": [198], "pool_size": [198], "padding": "valid", "data_format": "channels_last"}, "inbound_nodes": [[["Conv_Filter_3", 0, 0, {}]]]}, {"name": "MaxPool_4", "class_name": "MaxPooling1D", "config": {"name": "MaxPool_4", "trainable": true, "dtype": "float32", "strides": [197], "pool_size": [197], "padding": "valid", "data_format": "channels_last"}, "inbound_nodes": [[["Conv_Filter_4", 0, 0, {}]]]}, {"name": "MaxPool_5", "class_name": "MaxPooling1D", "config": {"name": "MaxPool_5", "trainable": true, "dtype": "float32", "strides": [196], "pool_size": [196], "padding": "valid", "data_format": "channels_last"}, "inbound_nodes": [[["Conv_Filter_5", 0, 0, {}]]]}, {"name": "MaxPool_6", "class_name": "MaxPooling1D", "config": {"name": "MaxPool_6", "trainable": true, "dtype": "float32", "strides": [195], "pool_size": [195], "padding": "valid", "data_format": "channels_last"}, "inbound_nodes": [[["Conv_Filter_6", 0, 0, {}]]]}, {"name": "Flatten_3", "class_name": "Flatten", "config": {"name": "Flatten_3", "trainable": true, "dtype": "float32", "data_format": "channels_last"}, "inbound_nodes": [[["MaxPool_3", 0, 0, {}]]]}, {"name": "Flatten_4", "class_name": "Flatten", "config": {"name": "Flatten_4", "trainable": true, "dtype": "float32", "data_format": "channels_last"}, "inbound_nodes": [[["MaxPool_4", 0, 0, {}]]]}, {"name": "Flatten_5", "class_name": "Flatten", "config": {"name": "Flatten_5", "trainable": true, "dtype": "float32", "data_format": "channels_last"}, "inbound_nodes": [[["MaxPool_5", 0, 0, {}]]]}, {"name": "Flatten_6", "class_name": "Flatten", "config": {"name": "Flatten_6", "trainable": true, "dtype": "float32", "data_format": "channels_last"}, "inbound_nodes": [[["MaxPool_6", 0, 0, {}]]]}, {"name": "concatenate_1", "class_name": "Concatenate", "config": {"name": "concatenate_1", "trainable": true, "dtype": "float32", "axis": -1}, "inbound_nodes": [[["Flatten_3", 0, 0, {}], ["Flatten_4", 0, 0, {}], ["Flatten_5", 0, 0, {}], ["Flatten_6", 0, 0, {}]]]}, {"name": "Fully_Connected", "class_name": "Dense", "config": {"name": "Fully_Connected", "trainable": true, "dtype": "float32", "units": 128, "activation": "sigmoid", "use_bias": true, "kernel_initializer": {"class_name": "VarianceScaling", "config": {"scale": 1.0, "mode": "fan_avg", "distribution": "uniform", "seed": null}}, "bias_initializer": {"class_name": "Zeros", "config": {}}, "kernel_regularizer": null, "bias_regularizer": null, "activity_regularizer": null, "kernel_constraint": null, "bias_constraint": null}, "inbound_nodes": [[["concatenate_1", 0, 0, {}]]]}, {"name": "Dropout", "class_name": "Dropout", "config": {"name": "Dropout", "trainable": true, "dtype": "float32", "rate": 0.2, "noise_shape": null, "seed": null}, "inbound_nodes": [[["Fully_Connected", 0, 0, {}]]]}, {"name": "Fully_Connected_2", "class_name": "Dense", "config": {"name": "Fully_Connected_2", "trainable": true, "dtype": "float32", "units": 256, "activation": "sigmoid", "use_bias": true, "kernel_initializer": {"class_name": "VarianceScaling", "config": {"scale": 1.0, "mode": "fan_avg", "distribution": "uniform", "seed": null}}, "bias_initializer": {"class_name": "Zeros", "config": {}}, "kernel_regularizer": null, "bias_regularizer": null, "activity_regularizer": null, "kernel_constraint": null, "bias_constraint": null}, "inbound_nodes": [[["Dropout", 0, 0, {}]]]}, {"name": "Softmax_Output", "class_name": "Dense", "config": {"name": "Softmax_Output", "trainable": true, "dtype": "float32", "units": 1, "activation": "sigmoid", "use_bias": true, "kernel_initializer": {"class_name": "VarianceScaling", "config": {"scale": 1.0, "mode": "fan_avg", "distribution": "uniform", "seed": null}}, "bias_initializer": {"class_name": "Zeros", "config": {}}, "kernel_regularizer": null, "bias_regularizer": null, "activity_regularizer": null, "kernel_constraint": null, "bias_constraint": null}, "inbound_nodes": [[["Fully_Connected_2", 0, 0, {}]]]}], "input_layers": [["Input", 0, 0]], "output_layers": [["Softmax_Output", 0, 0]]}, "keras_version": "2.3.0", "backend": "tensorflow"}}, "3": {"_name": "Label level features", "_desc": "CNN over the labels that make up a URL", "accuracy": 88.6, "precision": 0.96, "recall": 0.612, "f1score": 0.747, "params": {"first_activation": "elu", "first_neuron": 256, "dropout": 0.2, "second_activation": "elu", "second_neuron": 128, "optimizer": "adam"}, "config": {"class_name": "Model", "config": {"name": "model_1", "layers": [{"name": "lexical_input", "class_name": "InputLayer", "config": {"batch_input_shape": [null, 200], "dtype": "float32", "sparse": false, "name": "lexical_input"}, "inbound_nodes": []}, {"name": "embedding_1", "class_name": "Embedding", "config": {"name": "embedding_1", "trainable": true, "batch_input_shape": [null, 200], "dtype": "float32", "input_dim": 20002, "output_dim": 32, "embeddings_initializer": {"class_name": "RandomUniform", "config": {"minval": -0.05, "maxval": 0.05, "seed": null}}, "embeddings_regularizer": null, "activity_regularizer": null, "embeddings_constraint": null, "mask_zero": false, "input_length": 200}, "inbound_nodes": [[["lexical_input", 0, 0, {}]]]}, {"name": "kernel_3", "class_name": "Conv1D", "config": {"name": "kernel_3", "trainable": true, "dtype": "float32", "filters": 256, "kernel_size": [3], "strides": [1], "padding": "valid", "data_format": "channels_last", "dilation_rate": [1], "activation": "linear", "use_bias": true, "kernel_initializer": {"class_name": "VarianceScaling", "config": {"scale": 1.0, "mode": "fan_avg", "distribution": "uniform", "seed": null}}, "bias_initializer": {"class_name": "Zeros", "config": {}}, "kernel_regularizer": null, "bias_regularizer": null, "activity_regularizer": null, "kernel_constraint": null, "bias_constraint": null}, "inbound_nodes": [[["embedding_1", 0, 0, {}]]]}, {"name": "kernel_4", "class_name": "Conv1D", "config": {"name": "kernel_4", "trainable": true, "dtype": "float32", "filters": 256, "kernel_size": [4], "strides": [1], "padding": "valid", "data_format": "channels_last", "dilation_rate": [1], "activation": "linear", "use_bias": true, "kernel_initializer": {"class_name": "VarianceScaling", "config": {"scale": 1.0, "mode": "fan_avg", "distribution": "uniform", "seed": null}}, "bias_initializer": {"class_name": "Zeros", "config": {}}, "kernel_regularizer": null, "bias_regularizer": null, "activity_regularizer": null, "kernel_constraint": null, "bias_constraint": null}, "inbound_nodes": [[["embedding_1", 0, 0, {}]]]}, {"name": "kernel_5", "class_name": "Conv1D", "config": {"name": "kernel_5", "trainable": true, "dtype": "float32", "filters": 256, "kernel_size": [5], "strides": [1], "padding": "valid", "data_format": "channels_last", "dilation_rate": [1], "activation": "linear", "use_bias": true, "kernel_initializer": {"class_name": "VarianceScaling", "config": {"scale": 1.0, "mode": "fan_avg", "distribution": "uniform", "seed": null}}, "bias_initializer": {"class_name": "Zeros", "config": {}}, "kernel_regularizer": null, "bias_regularizer": null, "activity_regularizer": null, "kernel_constraint": null, "bias_constraint": null}, "inbound_nodes": [[["embedding_1", 0, 0, {}]]]}, {"name": "kernel_6", "class_name": "Conv1D", "config": {"name": "kernel_6", "trainable": true, "dtype": "float32", "filters": 256, "kernel_size": [6], "strides": [1], "padding": "valid", "data_format": "channels_last", "dilation_rate": [1], "activation": "linear", "use_bias": true, "kernel_initializer": {"class_name": "VarianceScaling", "config": {"scale": 1.0, "mode": "fan_avg", "distribution": "uniform", "seed": null}}, "bias_initializer": {"class_name": "Zeros", "config": {}}, "kernel_regularizer": null, "bias_regularizer": null, "activity_regularizer": null, "kernel_constraint": null, "bias_constraint": null}, "inbound_nodes": [[["embedding_1", 0, 0, {}]]]}, {"name": "maxpool_3", "class_name": "MaxPooling1D", "config": {"name": "maxpool_3", "trainable": true, "dtype": "float32", "strides": [198], "pool_size": [198], "padding": "valid", "data_format": "channels_last"}, "inbound_nodes": [[["kernel_3", 0, 0, {}]]]}, {"name": "maxpool_4", "class_name": "MaxPooling1D", "config": {"name": "maxpool_4", "trainable": true, "dtype": "float32", "strides": [197], "pool_size": [197], "padding": "valid", "data_format": "channels_last"}, "inbound_nodes": [[["kernel_4", 0, 0, {}]]]}, {"name": "maxpool_5", "class_name": "MaxPooling1D", "config": {"name": "maxpool_5", "trainable": true, "dtype": "float32", "strides": [196], "pool_size": [196], "padding": "valid", "data_format": "channels_last"}, "inbound_nodes": [[["kernel_5", 0, 0, {}]]]}, {"name": "maxpool_6", "class_name": "MaxPooling1D", "config": {"name": "maxpool_6", "trainable": true, "dtype": "float32", "strides": [195], "pool_size": [195], "padding": "valid", "data_format": "channels_last"}, "inbound_nodes": [[["kernel_6", 0, 0, {}]]]}, {"name": "flatten_3", "class_name": "Flatten", "config": {"name": "flatten_3", "trainable": true, "dtype": "float32", "data_format": "channels_last"}, "inbound_nodes": [[["maxpool_3", 0, 0, {}]]]}, {"name": "flatten_4", "class_name": "Flatten", "config": {"name": "flatten_4", "trainable": true, "dtype": "float32", "data_format": "channels_last"}, "inbound_nodes": [[["maxpool_4", 0, 0, {}]]]}, {"name": "flatten_5", "class_name": "Flatten", "config": {"name": "flatten_5", "trainable": true, "dtype": "float32", "data_format": "channels_last"}, "inbound_nodes": [[["maxpool_5", 0, 0, {}]]]}, {"name": "flatten_6", "class_name": "Flatten", "config": {"name": "flatten_6", "trainable": true, "dtype": "float32", "data_format": "channels_last"}, "inbound_nodes": [[["maxpool_6", 0, 0, {}]]]}, {"name": "concatenate_1", "class_name": "Concatenate", "config": {"name": "concatenate_1", "trainable": true, "dtype": "float32", "axis": -1}, "inbound_nodes": [[["flatten_3", 0, 0, {}], ["flatten_4", 0, 0, {}], ["flatten_5", 0, 0, {}], ["flatten_6", 0, 0, {}]]]}, {"name": "fully_connected", "class_name": "Dense", "config": {"name": "fully_connected", "trainable": true, "dtype": "float32", "units": 256, "activation": "elu", "use_bias": true, "kernel_initializer": {"class_name": "VarianceScaling", "config": {"scale": 1.0, "mode": "fan_avg", "distribution": "uniform", "seed": null}}, "bias_initializer": {"class_name": "Zeros", "config": {}}, "kernel_regularizer": null, "bias_regularizer": null, "activity_regularizer": null, "kernel_constraint": null, "bias_constraint": null}, "inbound_nodes": [[["concatenate_1", 0, 0, {}]]]}, {"name": "drop_0.2", "class_name": "Dropout", "config": {"name": "drop_0.2", "trainable": true, "dtype": "float32", "rate": 0.2, "noise_shape": null, "seed": null}, "inbound_nodes": [[["fully_connected", 0, 0, {}]]]}, {"name": "fully_connected_2", "class_name": "Dense", "config": {"name": "fully_connected_2", "trainable": true, "dtype": "float32", "units": 128, "activation": "elu", "use_bias": true, "kernel_initializer": {"class_name": "VarianceScaling", "config": {"scale": 1.0, "mode": "fan_avg", "distribution": "uniform", "seed": null}}, "bias_initializer": {"class_name": "Zeros", "config": {}}, "kernel_regularizer": null, "bias_regularizer": null, "activity_regularizer": null, "kernel_constraint": null, "bias_constraint": null}, "inbound_nodes": [[["drop_0.2", 0, 0, {}]]]}, {"name": "output_prediction", "class_name": "Dense", "config": {"name": "output_prediction", "trainable": true, "dtype": "float32", "units": 1, "activation": "sigmoid", "use_bias": true, "kernel_initializer": {"class_name": "VarianceScaling", "config": {"scale": 1.0, "mode": "fan_avg", "distribution": "uniform", "seed": null}}, "bias_initializer": {"class_name": "Zeros", "config": {}}, "kernel_regularizer": null, "bias_regularizer": null, "activity_regularizer": null, "kernel_constraint": null, "bias_constraint": null}, "inbound_nodes": [[["fully_connected_2", 0, 0, {}]]]}], "input_layers": [["lexical_input", 0, 0]], "output_layers": [["output_prediction", 0, 0]]}, "keras_version": "2.3.0", "backend": "tensorflow"}}}}}